…
 ) config = { 'batch_size' : 4096 , 'max_epochs' : 100 , 'layers' : [ 128 , 128 , 128 , 128 , 128 ], 'dropout' : 0.0 , 'learning_rate' : 0.001 } # or best_config from autotune if you already did it once reg . custom_model ( save_path = 'best_flange_model' , config = config , verbose = True ) reg . training_summary () Metal device set to: Apple M1 Pro systemMemory: 16.00 GB maxCacheSize: 5.33 GB Model: \"sequential\" _________________________________________________________________ Layer (type) Output Shape Param # ================================================================= dense (Dense) (None, 128) 3328 dense_1 (Dense) (None, 128) 16512 dense_2 (Dense) (None, 128) 16512 dense_3 (Dense) (None, 128) 16512 dense_4 (Dense) (None, 128) 16512 dense_5 (Dense) (None, 1) 129 ================================================================= Total params: 69,505 Trainable params: 69,505 Non-trainable params: 0 _________________________________________________________________ Epoch 1/100 20/20 [==============================] - 1s 15ms/step - loss: 0.0338 - val_loss: 0.0098 Epoch 2/100 20/20 [==============================] - 0s 9ms/step - loss: 0.0055 - val_loss: 0.005
…
opout = [ 0.0 , 0.5 , 0.1 ], learning_rate = [ 1e-5 , 1e-3 ] ) print ( best_config ) config = { 'batch_size' : 4096 , 'max_epochs' : 100 , 'layers' : [ 128 , 128 , 128 , 128 , 128 ], 'dropout' : 0.1 , 'learning_rate' : 0.001 } # or best_config from autotune if you already did it once reg . custom_model ( save_path = 'best_web_model' , config = config , verbose = True ) reg . training_summary () Model: \"sequential\" _________________________________________________________________ Layer (type) Output Shape Param # ================================================================= dense (Dense) (None, 128) 3328 dropout (Dropout) (None, 128) 0 dense_1 (Dense) (None, 128) 16512 dropout_1 (Dropout) (None, 128) 0 dense_2 (Dense) (None, 128) 16512 dropout_2 (Dropout) (None, 128) 0 dense_3 (Dense) (None, 128) 16512 dropout_3 (Dropout) (None, 128) 0 dense_4 (Dense) (None, 128) 16512 dropout_4 (Dropout) (None, 128) 0 dense_5 (Dense) (None, 1) 129 ================================================================= Total params: 69,505 Trainable params: 69,505 Non-trainable params: 0 _________________________________________________________________ Epoch 1/100 20/20 [==============================] - 1s 16ms/step - loss: 0.0514 - val_loss: 0.0182 Epoch 2/100 20/20 [==============================] - 0s 12ms/step - loss: 0.0227 - val_loss: 0.02
…
longer. config = { 'batch_size' : 4096 , 'max_epochs' : 50 , 'layers' : [ 128 , 128 , 128 , 128 , 128 ], 'dropout' : 0.0 , 'learning_rate' : 0.001 } # or best_config from autotune if you already did it once reg . custom_model ( save_path = 'best_x0_model' , config = config , verbose = True ) reg . training_summary () Metal device set to: Apple M1 Pro systemMemory: 16.00 GB maxCacheSize: 5.33 GB Model: \"sequential\" _________________________________________________________________ Layer (type) Output Shape Param # ================================================================= dense (Dense) (None, 128) 1920 dense_1 (Dense) (None, 128) 16512 dense_2 (Dense) (None, 128) 16512 dense_3 (Dense) (None, 128) 16512 dense_4 (Dense) (None, 128) 16512 dense_5 (Dense) (None, 3) 387 ================================================================= Total params: 68,355 Trainable params: 68,355 Non-trainable params: 0 _________________________________________________________________ Epoch 1/50 194/194 [==============================] - 2s 10ms/step - loss: 0.0112 - val_loss: 6.9350e-04 Epoch 2/50 194/194 [==============================] - 2s 9ms/step - loss: 4.4537e-04 - val_l
…
