…
ut = [ 0.0 , 0.5 , 0.1 ], learning_rate = [ 1e-5 , 1e-3 ] ) print ( best_config ) config = { 'batch_size' : 4096 , 'max_epochs' : 100 , 'layers' : [ 128 , 128 , 128 , 128 , 128 ], 'dropout' : 0.0 , 'learning_rate' : 0.001 } # or best_config from autotune if you already did it once reg . custom_model ( save_path = 'best_flange_model' , config = config , verbose = True ) reg . training_summary () Model: \"sequential\" _________________________________________________________________ Layer (type) Output Shape Param # ================================================================= dense (Dense) (None, 128) 3328 dense_1 (Dense) (None, 128) 16512 dense_2 (Dense) (None, 128) 16512 dense_3 (Dense) (None, 128) 16512 dense_4 (Dense) (None, 128) 16512 dense_5 (Dense) (None, 1) 129 ================================================================= Total params: 69,505 Trainable params: 69,505 Non-trainable params: 0 _________________________________________________________________ Epoch 1/100 20/20 [==============================] - 0s 12ms/step - loss: 0.0305 - val_loss: 0.0117 Epoch 2/100 20/20 [==============================] - 0s 7ms/step - loss: 0.0051 - val_loss: 0.004
…
fig ) config = { 'batch_size' : 4096 , 'max_epochs' : 100 , 'layers' : [ 128 , 128 , 128 , 128 , 128 ], 'dropout' : 0.1 , 'learning_rate' : 0.001 } # or best_config from autotune if you already did it once reg . custom_model ( save_path = 'best_web_model' , config = config , verbose = True ) reg . training_summary () Metal device set to: Apple M1 Pro systemMemory: 16.00 GB maxCacheSize: 5.33 GB Model: \"sequential\" _________________________________________________________________ Layer (type) Output Shape Param # ================================================================= dense (Dense) (None, 128) 3328 dropout (Dropout) (None, 128) 0 dense_1 (Dense) (None, 128) 16512 dropout_1 (Dropout) (None, 128) 0 dense_2 (Dense) (None, 128) 16512 dropout_2 (Dropout) (None, 128) 0 dense_3 (Dense) (None, 128) 16512 dropout_3 (Dropout) (None, 128) 0 dense_4 (Dense) (None, 128) 16512 dropout_4 (Dropout) (None, 128) 0 dense_5 (Dense) (None, 1) 129 ================================================================= Total params: 69,505 Trainable params: 69,505 Non-trainable params: 0 _________________________________________________________________ Epoch 1/100 20/20 [==============================] - 1s 15ms/step - loss: 0.0387 - val_loss: 0.0230 Epoch 2/100 20/20 [==============================] - 0s 9ms/step - loss: 0.0215 - val_loss: 0.017
…
longer. config = { 'batch_size' : 4096 , 'max_epochs' : 50 , 'layers' : [ 128 , 128 , 128 , 128 , 128 ], 'dropout' : 0.0 , 'learning_rate' : 0.005 } # or best_config from autotune if you already did it once reg . custom_model ( save_path = 'best_x0_model' , config = config , verbose = True ) reg . training_summary () Metal device set to: Apple M1 Pro systemMemory: 16.00 GB maxCacheSize: 5.33 GB Model: \"sequential\" _________________________________________________________________ Layer (type) Output Shape Param # ================================================================= dense (Dense) (None, 128) 2560 dense_1 (Dense) (None, 128) 16512 dense_2 (Dense) (None, 128) 16512 dense_3 (Dense) (None, 128) 16512 dense_4 (Dense) (None, 128) 16512 dense_5 (Dense) (None, 1) 129 ================================================================= Total params: 68,737 Trainable params: 68,737 Non-trainable params: 0 _________________________________________________________________ Epoch 1/50 194/194 [==============================] - 2s 7ms/step - loss: 0.0192 - val_loss: 0.0018 Epoch 2/50 194/194 [==============================] - 1s 7ms/step - loss: 0.0013 - val_loss: 0.00
…
